digit_detector/assets/model.pth (torch, 89851 bytes, 8 tensors)

conv1.weight f4 [10, 1, 5, 5]
0	0x3e187dc1	0.14891721
1	0x3e850860	0.25982952
2	0x3e06accc	0.13151854
3	0x3ec0e5d3	0.37675342
4	0x3c7104c6	0.014710611
5	0x3d68f7e9	0.05687705
6	0x3e08ca75	0.13358481
7	0x3efbfa7d	0.49214545
8	0x3ed77061	0.42077926
9	0xbde02261	-0.10944057
10	0x3e887deb	0.26658568
11	0x3eb117f8	0.345886
12	0x3f021bad	0.5082348
13	0x3e55cb81	0.20878412
14	0x3e35b6e1	0.17745544
15	0x3cc55040	0.024086118
16	0x3ea5fa35	0.32417455
17	0x3e5b5ab4	0.21421319
18	0x3cb8afa7	0.022544695
19	0x3e1506d2	0.14553383
20	0xbe014e0d	-0.1262743
21	0x3cb41dfa	0.02198695
22	0x3d070a4e	0.03296881
23	0x3e78797f	0.24265097
24	0xbdc1275b	-0.094313346
25	0xbde7b012	-0.113128796
26	0xbdd43947	-0.10362487
27	0xbe13ba72	-0.14426592
28	0x3be95e81	0.0071218614
29	0xbe6bfb6c	-0.23045129
30	0x3e456c7b	0.19279663
31	0xbe36b9fb	-0.17844383
32	0x3e2bf72c	0.16793507
33	0x3ca29492	0.019846234
34	0xbe08bb1b	-0.13352625
35	0x3e64219b	0.22278444
36	0x3e4a140f	0.19734214
37	0x3ed77fd4	0.42089713
38	0x3e53f76f	0.20699857
39	0xbcdcce0b	-0.026953718
40	0x3e21b345	0.15791042
41	0x3e4afe74	0.19823629
42	0x3ef2bf51	0.47411588
43	0x3ef074b7	0.46964046
44	0x3e76eeaf	0.24114488
45	0xbdf718ed	-0.12065301
46	0x3e5b7090	0.21429658
47	0x3e4edb36	0.2020081
48	0x3e86ed26	0.26352805
49	0x3b5693cc	0.0032741902
50	0xbe05fc98	-0.13084638
51	0x3e0612b7	0.13093077
52	0x3d954114	0.07287803
53	0x3e80a93d	0.2512912
54	0x3d268f94	0.04066427
55	0x3e03b9c6	0.12863836
56	0x3e8e28c1	0.27765468
57	0x3e440d78	0.19145763
58	0x3e3310bb	0.17486851
59	0xbe7e5c00	-0.24839783
60	0x3e22d5fc	0.15901941
61	0x3e46def1	0.19420983
62	0x3e8fabc5	0.28060737
63	0xbdf923a9	-0.12165005
64	0xbdff92f5	-0.12479202
65	0x3e3780fc	0.17920297
66	0x3ef14570	0.4712329
67	0x3b310c7b	0.0027015496
68	0xbe7143e6	-0.23561057
69	0xbe937202	-0.2879792
70	0x3ec9527f	0.39320752
71	0x3e91151e	0.28336424
72	0x3e3574c3	0.17720322
73	0xbeb16849	-0.34649876
74	0xbec8373f	-0.3910465
75	0xbe6f379d	-0.23361059
76	0xbe3d8fdf	-0.18511914
77	0x3dc20961	0.09474445
78	0x3e3d469f	0.18483971
79	0x3e9e8eec	0.30968416
80	0xbe51fd9d	-0.20506902
81	0xbe220108	-0.15820706
82	0x3e474af2	0.19462183
83	0x3db1cbbe	0.08681439
84	0x3e8158a9	0.25262955
85	0xbe23b136	-0.1598557
86	0x3e06c4fe	0.13161084
87	0x3c5b4759	0.01338371
88	0x3dbd9ee0	0.092588186
89	0x3dfb0e2c	0.122585624
90	0xbd0adb03	-0.033900272
91	0xbc03cb69	-0.008044102
92	0x3e7afe2f	0.24511026
93	0x3e7aa6d7	0.24477707
94	0xbe0ef510	-0.13960671
95	0xbd96d933	-0.07365646
96	0x3e8c2d4e	0.27378315
97	0x3d6255fd	0.055257786
98	0xbb0bcd14	-0.0021331953
99	0xbe3b744d	-0.18306084
100	0xbe356d99	-0.1771759
101	0x3a7e638f	0.00097041664
102	0xbd859b5c	-0.06523773
103	0xbe38d318	-0.18049276
104	0xbd1cfc31	-0.038326446
105	0xbe515c4f	-0.20445369
106	0xbe68fc87	-0.22752582
107	0xbe2236c8	-0.1584121
108	0xbe622edf	-0.22088192
109	0xbe31bf58	-0.17358148
110	0x3deb4304	0.114873916
111	0xbd045b4e	-0.032313637
112	0x3b940858	0.004517596
113	0xbe72beb1	-0.23705555
114	0xbe38bb84	-0.18040282
115	0xbde2a551	-0.11066688
116	0xbc0d390d	-0.008619559
117	0xbe6249ca	-0.22098461
118	0xbe0957cc	-0.13412398
119	0xbe307a54	-0.17234164
120	0x3c445b50	0.011984661
121	0xbd948fc2	-0.07253982
122	0xbd04357e	-0.032277577
123	0xbe377268	-0.17914736
124	0xbe45de85	-0.19323166
125	0xbe07d067	-0.13263093
126	0xbdbba28b	-0.09161862
127	0xbe3d32c4	-0.18476397
128	0x3e09e978	0.13467968
129	0xbcf5aded	-0.02999016
130	0x3e15c236	0.14624867
131	0x3c2ad62d	0.01042704
132	0xbe6c2836	-0.23062214
133	0x3da47a60	0.08031154
134	0xbd854457	-0.065071754
135	0xbd8e3f0c	-0.06945619
136	0xbe438bc5	-0.19096287
137	0xbe7da0ce	-0.24768373
138	0x3bc86af3	0.006116265
139	0xbd4b92af	-0.049700435
140	0x3e26dc27	0.16294919
141	0xbdc61ba6	-0.09673242
142	0x3e390522	0.18068364
143	0xbe0db0ea	-0.13837019
144	0xbc791d8a	-0.015204797
145	0x3e33c9b5	0.17557414
146	0x3e84e53c	0.25956142
147	0x3e94fe49	0.29100254
148	0x3e80b9b7	0.2514169
149	0xbe007a8c	-0.12546748
150	0x3d25b69e	0.04045736
151	0xbde54d99	-0.11196441
152	0xbd986d50	-0.07442725
153	0xbe3952f7	-0.18098055
154	0x3e4febd5	0.20304807
155	0xbe0f9b2b	-0.14024036
156	0x3e2cb4ca	0.1686584
157	0x3e0a75d7	0.13521515
158	0x3e11af43	0.14227013
159	0xbd1cf288	-0.038317233
160	0x3e90a8f4	0.282539
161	0x3e48238f	0.19544815
162	0x3e201ad3	0.15635233
163	0xbdd3d47b	-0.10343262
164	0x3e10fe3b	0.14159481
165	0xbbc5c82c	-0.0060358252
166	0xbd2add23	-0.0417148
167	0x3e807bb2	0.25094372
168	0x3d9074df	0.070535414
169	0xbdeb2c99	-0.11483116
170	0xbe390a57	-0.1807035
171	0xbc9dce73	-0.019263482
172	0x3e19ea51	0.15030791
173	0xbd3534f6	-0.04423996
174	0xbe05237c	-0.13001817
175	0xbdca3693	-0.098736905
176	0xbde47f7c	-0.11157128
177	0x3e23365c	0.15938705
178	0x3e5cc0f7	0.21557985
179	0xbe665fcb	-0.2249748
180	0x3dce09aa	0.10060437
181	0x3e711b73	0.23545627
182	0x3e19811b	0.14990656
183	0xbdaa462a	-0.08314164
184	0xbc923075	-0.017845372
185	0x3e48cbeb	0.19609039
186	0x3e5f7638	0.2182244
187	0x3df8018c	0.1210967
188	0x3ba386b5	0.0049904236
189	0xbb8666cc	-0.00410161
190	0xbc7c04d0	-0.015382007
191	0x3ca09b8b	0.019605419
192	0x3ea5f754	0.3241526
193	0x3ec4af2e	0.38414901
194	0x3dee9a71	0.11650551
195	0xbdecea1c	-0.1156809
196	0xbd1d3da1	-0.038388852
197	0x3d359e2c	0.044340298
198	0x3e4ed991	0.20200182
199	0x3e83a3b2	0.25710827
200	0xbe5a8c61	-0.21342613
201	0xbe1df318	-0.15424764
202	0x3d9dce71	0.07705391
203	0x3d0dcb2b	0.034617584
204	0xbd01884c	-0.031624123
205	0xbe0effec	-0.13964814
206	0xbe830c49	-0.2559531
207	0xbe9ad51b	-0.30240712
208	0xbe0bd637	-0.13655935
209	0x3be73d29	0.0070568514
210	0x3e5984fa	0.21242133
211	0x3d723898	0.059136003
212	0xbe760183	-0.24024014
213	0xbe4db866	-0.20089874
214	0xbe00c1ef	-0.1257398
215	0x3eaad2d6	0.3336398
216	0x3e27e3d5	0.16395505
217	0xbb092f22	-0.0020932634
218	0x3d4e5ebc	0.050383314
219	0xbe07d76f	-0.13265775
220	0xbccf4d5c	-0.025305443
221	0x3e9a1788	0.30096078
222	0x3d06f230	0.03294581
223	0x3cf11527	0.029429032
224	0xbe47d923	-0.19516425
225	0x3e8dacbf	0.27670857
226	0x3ecddf78	0.40209556
227	0x3ec91186	0.39271182
228	0x3e4f2360	0.20228338
229	0x3e0d7a95	0.13816293
230	0x3c84670c	0.016162418
231	0x3ecedb5c	0.40401733
232	0x3ec42fcb	0.38317713
233	0x3ef067f8	0.46954322
234	0x3ebdca2a	0.370683
235	0x3d1a40e5	0.037659544
236	0xbd8e23fe	-0.06940459
237	0xbe6c3f67	-0.23071061
238	0xbe45ed4b	-0.19328801
239	0xbe27ab1f	-0.16373871
240	0xbdf0b05c	-0.11752388
241	0xbeadbcbc	-0.33933055
242	0xbe94b092	-0.29040962
243	0xbe8b555d	-0.27213565
244	0xbe156213	-0.14588194
245	0xbebada79	-0.36494806
246	0xbeb42d33	-0.35190734
247	0xbe0d77ce	-0.13815233
248	0xbe28c941	-0.16483022
249	0xbc8ec2c5	-0.017426858

conv1.bias f4 [10]
0	0x3e1b4ee2	0.1516681
1	0x3d9f111f	0.077669375
2	0xbd0a0aae	-0.03370159
3	0xbde17988	-0.11009508
4	0x3d327215	0.04356583
5	0xbe114c25	-0.14189203
6	0x3e3c1d08	0.1837045
7	0x3c364a14	0.01112606
8	0x3e0eb5d5	0.13936551
9	0x3dd18080	0.102295876

conv2.weight f4 [20, 10, 5, 5]
0	0x3d587552	0.05284626
1	0xbd3bd310	-0.04585558
2	0xbb9f7314	-0.0048660133
3	0xbd2d5033	-0.042312812
4	0xbda78935	-0.08180467
5	0x3d149287	0.036272552
6	0xbc8aacf9	-0.016928183
7	0xbd435fd3	-0.047698807
8	0xbd6eaee0	-0.058272243
9	0xbe046b51	-0.12931563
10	0x3d4bb093	0.04972894
11	0x3b7f4ed5	0.00389569
12	0x3da65e94	0.08123508
13	0x3e07afdc	0.13250679
14	0x3e05996f	0.13046812
15	0xbba4a7ce	-0.0050248867
16	0xbded889b	-0.11598321
17	0xbd473cac	-0.048641846
18	0x3d37f4d8	0.044911236
19	0xbccd9a0a	-0.025097866
20	0x3c480145	0.012207334
21	0xbe10d3d5	-0.14143308
22	0xbe4569b8	-0.1927861
23	0xbe345653	-0.17611055
24	0xbd9bfefe	-0.07616995
25	0xbd368398	-0.04455909
26	0xbdaa2c9e	-0.08309291
27	0xbbfc26fc	-0.007695077
28	0x3cf23d32	0.029570196
29	0xbda3057d	-0.07960031
30	0xbc4b044b	-0.01239116
31	0x3ce19eb5	0.027541498
32	0xbd374bdb	-0.044750076
33	0xbc61d812	-0.013784425
34	0x3d1b89ff	0.0379734
35	0xbcab4231	-0.020905586
36	0xbc8d6e18	-0.01726441
37	0x3d2d72bf	0.04234576
38	0x3dc51113	0.09622397
39	0x3dc87a0f	0.09788906
40	0xbbf04c10	-0.007333286
41	0xbdf85791	-0.12126077
42	0xbe1f8453	-0.15577821
43	0xbdd5f60c	-0.1044732
44	0xbd5dbf60	-0.054137588
45	0x3e47d911	0.19516398
46	0x3d9341c6	0.0719028
47	0x3d13b4c4	0.036061063
48	0x3c8c8d0e	0.017157104
49	0xbba930a1	-0.0051632677
50	0x3cf93142	0.030418996
51	0x3d39fabc	0.045405135
52	0xbc937750	-0.018001229
53	0x3d663628	0.05620399
54	0x3dcc5506	0.099771544
55	0xbc476067	-0.01216898
56	0x3d3ff92b	0.046868484
57	0x3dad4c7c	0.08461854
58	0xbbf6af7a	-0.0075282427
59	0x3c5c6f15	0.013454218
60	0xbd4692e2	-0.048479922
61	0xbd3fe7fe	-0.046852104
62	0xbcfd22e1	-0.03090042
63	0xbd74ae80	-0.05973673
64	0xbdddb8fb	-0.10826298
65	0xbd158cdc	-0.036511287
66	0xbd9d6dbe	-0.07686947
67	0xbe109dbf	-0.14122675
68	0xbe2ff03e	-0.17181489
69	0xbdeaabd8	-0.11458558
70	0x3cb1e39b	0.021714976
71	0x3d286866	0.041115187
72	0xbd332e01	-0.043745045
73	0xbd877111	-0.066133626
74	0x3d83b2c1	0.06430579
75	0xbd712d37	-0.05888101
76	0xbc958c7f	-0.01825547
77	0x3d11f872	0.035637327
78	0x3c266af1	0.010157333
79	0xbb9bff52	-0.004760661
80	0xbc6d0d09	-0.01446844
81	0xbcc5c551	-0.02414194
82	0xbd34dcf9	-0.04415605
83	0xbd6b6fb4	-0.057479575
84	0xbdae4da6	-0.08510904
85	0xbd2b6dfc	-0.041852936
86	0x3d271928	0.040795475
87	0xbd147665	-0.036245722
88	0xbd370cf2	-0.04469008
89	0xbcca0fca	-0.024665732
90	0xbcee9a1b	-0.029126218
91	0x3d02ea6a	0.031961836
92	0x3daf4e29	0.0855983
93	0x3d56e020	0.052459836
94	0xbdb0da44	-0.08635381
95	0xbd93e07c	-0.07220551
96	0xba9e3ac4	-0.0012071957
97	0xbcbf06b7	-0.023318632
98	0xbca65b04	-0.020307072
99	0x3dc2eca8	0.09517795
100	0xbc562973	-0.013071406
101	0xbcbc8c64	-0.023016162
102	0xbd64922d	-0.055803467
103	0xbb3b6f53	-0.002860029
104	0x3cd25e42	0.025679711
105	0x3caff811	0.021480592
106	0x3b983be6	0.0046458123
107	0xbd9835fd	-0.074321724
108	0xbda3c146	-0.07995848
109	0xbb4bc13f	-0.0031090525
110	0x3d904794	0.070449024
111	0x3d034e2c	0.032056972
112	0xbd792059	-0.060821865
113	0xbd2a0ac9	-0.04151419
114	0xbd73dda2	-0.059537537
115	0xbb53202c	-0.003221522
116	0x3d14cfb2	0.036330886
117	0x3d808ed2	0.06277241
118	0x3d721de9	0.059110556
119	0xbd3ed23b	-0.04658721
120	0x3d4e7f3d	0.050414313
121	0xbc8347d0	-0.016025454
122	0x3d750cb0	0.059826553
123	0x3da0ebd2	0.07857479
124	0x3d2452a7	0.040117886
125	0x3d3851e1	0.04499996
126	0xbd656d78	-0.0560126
127	0xbc738ced	-0.014865142
128	0x3d1f899d	0.038949598
129	0xbbda5e87	-0.0066641006
130	0x3bef1e15	0.007297287
131	0xbbc748e8	-0.006081689
132	0x3db98a40	0.09059572
133	0x3db083d9	0.08618898
134	0x3da8d467	0.082436375
135	0xbcab66f0	-0.020923108
136	0xbd857b6e	-0.06517683
137	0x3adce1d8	0.0016851975
138	0x3d31921f	0.043352243
139	0xb9cac35b	-0.00038673994
140	0x3c7251cf	0.0147900125
141	0x3d863d44	0.06554654
142	0x3ba6d7b8	0.0050916336
143	0x3af9f9f2	0.0019071682
144	0xbc9cdaaa	-0.019147236
145	0xbb824863	-0.0039759143
146	0x3c7833ab	0.015149037
147	0x3d1d5723	0.03841318
148	0x3d2d711d	0.0423442
149	0x3d6906f2	0.05689139
150	0xbd157928	-0.036492497
151	0xbc4f4d1c	-0.012652662
152	0x3d5ab91b	0.053399187
153	0x3d0afd3d	0.033932913
154	0x3d1c8dea	0.038221277
155	0xbd7c4fc1	-0.061599497
156	0xbc9574f4	-0.018244244
157	0x3cc591e5	0.02411742
158	0xbcff4412	-0.031160388
159	0xbcd6710e	-0.026176956
160	0xbb72e98a	-0.003706547
161	0xbb1a39a5	-0.0023532894
162	0xbc58a74c	-0.01322348
163	0x3daed0f5	0.08535949
164	0x3df87730	0.12132108
165	0x3c83d9d1	0.016095074
166	0xbcf8d004	-0.030372627
167	0xbdb087df	-0.08619665
168	0xbd10f8f5	-0.035393674
169	0x3d0afe1f	0.033933755
170	0x3d745974	0.05965562
171	0xbc1df3ee	-0.009640677
172	0xbd829679	-0.06376357
173	0x39c42958	0.00037414837
174	0xbd93e5a1	-0.072215326
175	0x3d09ffcb	0.03369121
176	0xbd450bdb	-0.04810701
177	0xbd2acbc5	-0.041698236
178	0xbcf5de7d	-0.030013317
179	0xbd5b64af	-0.053562816
180	0xbcc5c548	-0.024141923
181	0x3d8f5556	0.069986984
182	0x3befae8b	0.0073145083
183	0x3db400ff	0.087892525
184	0x3d5d84d7	0.054081764
185	0xbd178521	-0.036992196
186	0xbcc0ddd5	-0.023543278
187	0x3d96a904	0.07356456
188	0x3dff8826	0.1247714
189	0x3cf662af	0.030076353
190	0xbbd64ce7	-0.006539929
191	0xbdffb246	-0.12485175
192	0xbe106609	-0.14101423
193	0xbcff5b8a	-0.031171579
194	0x3c3bbfec	0.011459332
195	0x3db32707	0.08747678
196	0xba256069	-0.0006308617
197	0x3d0d007a	0.034424283
198	0xbc9fcf99	-0.01950817
199	0xbdd22b72	-0.10262193
200	0xbcacd67a	-0.021098364
201	0x3c312866	0.010812854
202	0x3cceceba	0.02524506
203	0xbd94e1fd	-0.07269666
204	0x3b81bdb7	0.0039593833
205	0xbd24ab30	-0.04020232
206	0xbd23decb	-0.040007394
207	0x3bef6134	0.0073052887
208	0x3da92be7	0.08260327
209	0x3d936282	0.07196523
210	0x3d974b2f	0.07387387
211	0x3d5f864b	0.05457143
212	0x3d99fa84	0.07518485
213	0x3cf31ca4	0.029676743
214	0x3c93e344	0.018052705
215	0x3daebd7c	0.08532235
216	0x3ca2201f	0.019790707
217	0xbc3f6f73	-0.011684286
218	0xbc7ebe1e	-0.015548257
219	0x3c51c37a	0.012802953
220	0x3dc13eea	0.09435828
221	0x3da861da	0.08221789
222	0x3d387db1	0.045041744
223	0x3d3e2df9	0.04643056
224	0xbc9c8bbb	-0.019109597
225	0xbbe1f7f8	-0.0068960153
226	0x3cb85521	0.02250153
227	0xbd162ac0	-0.036661863
228	0x3d3f8381	0.04675627
229	0x3da5ed3c	0.081018895
230	0x3c14793a	0.009062106
231	0x3cd49846	0.025951516
232	0x3d02ea89	0.03196195
233	0x3ca40c0c	0.020025276
234	0x3b5137e7	0.003192419
235	0xbcb35a59	-0.021893667
236	0x3d5bddfa	0.05367849
237	0x3dd32c24	0.103111535
238	0x3d242600	0.040075302
239	0x3d5a94f0	0.053364694
240	0x3bbd037f	0.005768239
241	0x3cd4da7c	0.025983088
242	0x3e0e8933	0.13919525
243	0x3e7186dd	0.23586603
244	0x3e6c71bf	0.23090266
245	0x3d4b9578	0.04970309
246	0xbd7050ae	-0.058670692
247	0xbbf0ca1b	-0.0073483116
248	0x3b4594b8	0.0030148458
249	0xbbde7431	-0.0067887534
250	0xbb35be6e	-0.0027731913
251	0xbdd766f8	-0.105176866
252	0xbc882a12	-0.016621623
253	0xbbf3f179	-0.0074445573
254	0xbdb35d79	-0.08758063
255	0x3c25edf9	0.010127538

conv2.bias f4 [20]
0	0x3d9c872c	0.076429695
1	0xbd6b73ed	-0.057483602
2	0xbce5bfb2	-0.028045509
3	0xbd7ab8ce	-0.0612114
4	0xbd607588	-0.054799587
5	0x3c9a1624	0.018809386
6	0x3cdceccf	0.026968388
7	0xbd1cd18c	-0.038285777
8	0x3c9dde2a	0.019270975
9	0xbd6e027e	-0.058107845
10	0x3c544919	0.012956881
11	0x3cc10590	0.023562223
12	0xbcfa9ac4	-0.030591376
13	0xbc22394e	-0.009901358
14	0x3d754f2b	0.059889954
15	0xbd1e9f24	-0.038725987
16	0xbc8ea0df	-0.017410694
17	0xbd51c251	-0.051210705
18	0x3ce7cfca	0.028297324
19	0xbacb11f1	-0.0015493018

fc1.weight f4 [50, 320]
0	0xbd01d21d	-0.03169452
1	0x3c5ccc95	0.0134765105
2	0xbc034eda	-0.008014405
3	0x3beb38ec	0.0071784165
4	0xbda75e5f	-0.08172297
5	0xbd784c0c	-0.0606194
6	0xbac76e77	-0.0015215416
7	0x3c1b5d3c	0.009482678
8	0xbe0e9b74	-0.13926488
9	0xbc2e5152	-0.010639505
10	0xbd66018e	-0.056153826
11	0x3d0d9df6	0.03457447
12	0xbceb1b24	-0.028699465
13	0x3d7c67b6	0.061622344
14	0x3d5960f0	0.053070962
15	0x3debfe36	0.11523096
16	0xbc27ab6b	-0.01023374
17	0xbc9d4e84	-0.019202478
18	0xbd701f75	-0.05862375
19	0xbd6064c6	-0.054783605
20	0xbcbc2ccc	-0.02297058
21	0xbc8b7c09	-0.017026918
22	0x3cf1c7ce	0.02951422
23	0x3d01eb3a	0.03171847
24	0x3b219c1f	0.0024659706
25	0xb7183dd0	-9.074298e-06
26	0xbc43be54	-0.011947233
27	0x3ccba19a	0.024857331
28	0xbc869f20	-0.016433299
29	0xbc8e4f62	-0.017371837
30	0x3d8c212c	0.068422645
31	0x3c5fdc07	0.013663298
32	0x3c9629e5	0.018330524
33	0x3d1149bf	0.03547072
34	0x3d46d2b8	0.0485408
35	0xbcbead21	-0.023275914
36	0xbd405c40	-0.046962976
37	0xbbca278f	-0.0061692665
38	0xbcaf3278	-0.02138637
39	0x3cd1e0eb	0.025619945
40	0x3da36160	0.07977557
41	0x3bfd7ff8	0.0077362023
42	0xbcc4fc7b	-0.024046173
43	0x3c7ef36a	0.015560964
44	0xbca394a8	-0.019968346
45	0x3d16b1b2	0.036790557
46	0xbd2afdee	-0.041746072
47	0xbdc5880d	-0.0964509
48	0x3cb7840a	0.022401828
49	0xbc53b5f1	-0.012921796
50	0x3d1c80dc	0.038208827
51	0xbc0e972c	-0.008703034
52	0x3d5c76f6	0.053824387
53	0xb942e47b	-0.00018586397
54	0x3d44aa77	0.04801413
55	0xbce7ed2b	-0.028311333
56	0xbd092d33	-0.03349037
57	0xbb1d92e9	-0.0024043864
58	0xbb02b03e	-0.0019941474
59	0xbcdf4bb4	-0.027257778
60	0xbd2487b4	-0.04016848
61	0xbc048710	-0.008088842
62	0xbd21d8ab	-0.03951327
63	0x3d7418b7	0.059593882
64	0x3c29c201	0.010361196
65	0x3d7b4c27	0.06135192
66	0x3dbd6fe0	0.09249854
67	0x3d26ee8b	0.040754836
68	0x3d4880cf	0.048950966
69	0x3d0d5208	0.03450206
70	0x3cd9e1f8	0.026597008
71	0xbcd506fe	-0.02600431
72	0xbcd202be	-0.025636073
73	0x3b22aad3	0.0024821057
74	0x3d7a7b1b	0.06115256
75	0x3c7b6d31	0.0153458575
76	0x3c62946c	0.013829332
77	0xbc762319	-0.015023016
78	0xbd2d930b	-0.04237656
79	0xbd9f889b	-0.07789727
80	0x3bcb0c71	0.0061965515
81	0x3bd6d653	0.006556311
82	0x3d656e7c	0.05601357
83	0xbd32b3da	-0.04362855
84	0xbc62bb28	-0.013838567
85	0xbd105629	-0.03523842
86	0xbdb697c1	-0.089156635
87	0xbe034792	-0.1282027
88	0xbd8d5701	-0.0690136
89	0xbd786093	-0.060638975
90	0x3c4a0f68	0.012332775
91	0xbb72438c	-0.003696653
92	0x3ce59c69	0.028028684
93	0x3def6b86	0.1169043
94	0x3d5555a0	0.05208361
95	0xbc88e3a5	-0.016710112
96	0xbd2cf3f7	-0.04222485
97	0x3b7fe2fe	0.003904521
98	0xbac01c0f	-0.00146568
99	0xbb6edc8e	-0.0036447379
100	0x3d5e0725	0.054206032
101	0x3d8e5c01	0.06951142
102	0xbce166be	-0.027514812
103	0xbaa320cd	-0.0012445688
104	0x3ce14835	0.027500251
105	0x3ca41478	0.020029292
106	0x3ccdad68	0.0251071
107	0x3c80ee5c	0.015738659
108	0x3cbf037c	0.023317091
109	0x3cd9247e	0.026506659
110	0x3d259e90	0.04043442
111	0x3c7b0a65	0.0153223025
112	0xbcf142b9	-0.029450761
113	0xbd893ac9	-0.067006655
114	0x3cebbe80	0.02877736
115	0xbccd02e8	-0.0250258
116	0xbd76ba93	-0.060236525
117	0x3cdc0676	0.02685855
118	0x3d92efa9	0.07174618
119	0x3cbfca34	0.023411848
120	0x3b9e3032	0.0048275227
121	0x3da9ada3	0.08285072
122	0x3d8c2ddc	0.068446845
123	0xbbab5851	-0.005229034
124	0xbd099f5e	-0.03359925
125	0xbd22089d	-0.039558996
126	0xbcadf5a5	-0.021235297
127	0x3ce26793	0.027637279
128	0xbd4bd721	-0.04976571
129	0x3d27cd7d	0.040967453
130	0x3ba886a6	0.0051430045
131	0xbc2d3065	-0.01057062
132	0x3cfaecea	0.030630548
133	0xbc55eec4	-0.013057414
134	0xbcb441f6	-0.022004109
135	0xbd26df76	-0.040740453
136	0x3c16b859	0.009199225
137	0xbd0c1a9b	-0.03420506
138	0xbd768968	-0.060189635
139	0xbc2252d1	-0.00990744
140	0x3bff35ad	0.007788381
141	0xbceeccba	-0.029150356
142	0x3d11778c	0.0355144
143	0x3d1fab45	0.038981695
144	0xbd7f90cb	-0.062393945
145	0xbcfc858f	-0.030825404
146	0xbc661e0c	-0.01404525
147	0xbd9ccc8f	-0.07656204
148	0xbca1392f	-0.019680588
149	0xbcbec9a8	-0.023289517
150	0xbc6b159c	-0.014348414
151	0xbcea95d7	-0.028635902
152	0xbd24066a	-0.04004518
153	0xbd24701c	-0.04014598
154	0x3cbf6a22	0.023366038
155	0xbc9398e2	-0.018017236
156	0xba9308a2	-0.0011217783
157	0x3d64fac1	0.0559032
158	0x3d6adf0c	0.05734162
159	0x3d11c8f0	0.03559202
160	0xbd528b4b	-0.05140237
161	0xbc672fa4	-0.0141104795
162	0xbc5af316	-0.01336362
163	0xbd8250e2	-0.063630834
164	0x3c01af41	0.007915319
165	0xbcf089a5	-0.029362509
166	0xbca1cd1b	-0.019751122
167	0xbc2ba174	-0.010475505
168	0x3caa05e1	0.020754756
169	0xbb3fb408	-0.0029251594
170	0xbcf73c9c	-0.030180268
171	0x3bf2594b	0.0073958985
172	0x3c32c6ec	0.0109116845
173	0xbb6a85fc	-0.0035785427
174	0xbc39a338	-0.011330418
175	0x3df9addd	0.12191365
176	0xbb35fe07	-0.002776982
177	0x3d154f56	0.036452614
178	0x3d9773ba	0.0739512
179	0xbd70502a	-0.0586702
180	0xbc2ace51	-0.010425166
181	0xbd379606	-0.044820808
182	0x3b6f76d3	0.003653933
183	0x3c4a92b1	0.0123640755
184	0x3c5c7dfc	0.013457771
185	0x3a8da991	0.0010807981
186	0x3d7f44e4	0.06232156
187	0x3c990eb5	0.01868377
188	0xbcbfd829	-0.023418503
189	0xbcae6a8f	-0.021291045
190	0xbdb6e72a	-0.0893081
191	0x3cd20c99	0.025640773
192	0x3d01f20e	0.031724982
193	0x3c884159	0.016632723
194	0xbc495f22	-0.012290748
195	0xbd568905	-0.052376766
196	0xbb939ddf	-0.0045049037
197	0x3cb09e9d	0.021560008
198	0xbc856d31	-0.016287418
199	0x3d334a60	0.0437721
200	0x3c4bb607	0.012433535
201	0xbb3217ca	-0.0027174824
202	0x3cb5bcf7	0.022184832
203	0x3ceb621f	0.028733311
204	0xbd29cd5c	-0.04145561
205	0x3c880578	0.01660417
206	0xbd4f133c	-0.050555453
207	0xbc4508df	-0.012026041
208	0x3a8b61ab	0.0010633966
209	0x3d696d28	0.056988865
210	0xbcaf79bd	-0.021420354
211	0xbc9ef927	-0.019405914
212	0xbd1caf54	-0.038253143
213	0x3c8d5ec5	0.017257104
214	0x3cb755a3	0.022379702
215	0xbcd72507	-0.026262773
216	0x3d019d75	0.031644303
217	0x3d102e52	0.035200424
218	0xbc8c1c54	-0.017103352
219	0xbd9409f2	-0.072284594
220	0x3adf8229	0.001705234
221	0x3c985bd7	0.01859848
222	0xbce8ab8c	-0.028402112
223	0xbd053f8d	-0.03253131
224	0x3c4f79a7	0.0126632815
225	0x3cd31e9b	0.02577143
226	0x3d3b8546	0.045781396
227	0x3c99f146	0.018791806
228	0x3d8431f5	0.06454841
229	0xbc03212c	-0.008003514
230	0x3cbd76eb	0.023127994
231	0xbcb53c89	-0.022123592
232	0x3b770610	0.0037692823
233	0x3d37bb49	0.044856343
234	0x3d166129	0.036713753
235	0xbc33595b	-0.010946597
236	0xbce38690	-0.027774125
237	0x3d18592d	0.03719442
238	0xbca6a0fe	-0.020340439
239	0xbda7e818	-0.08198565
240	0x3c5ed912	0.013601558
241	0xbca40e4d	-0.02002635
242	0xbcb460d7	-0.022018833
243	0x3c59ad9c	0.013286021
244	0xbc186200	-0.009300709
245	0x3c957391	0.018243583
246	0xbcc373ee	-0.02385899
247	0xbcc45e5d	-0.023970777
248	0xbd809b4d	-0.06279621
249	0xbd4044d7	-0.04694065
250	0xbd103c72	-0.035213895
251	0xbc60219e	-0.01367989
252	0xbd7cdeaa	-0.061735786
253	0x3c08f1b6	0.00835841
254	0x3db9306f	0.09042441
255	0x3dcce980	0.10005474

fc1.bias f4 [50]
0	0x3cd9c400	0.026582718
1	0x3c895702	0.016765121
2	0x3d83843f	0.06421708
3	0xbcb8d270	-0.022561282
4	0x3d06e799	0.032935712
5	0x3c5861dc	0.013206925
6	0x3d6a9efd	0.05728053
7	0xbc3db1c5	-0.011578028
8	0x3d5e3bc9	0.054256234
9	0x3d0773d3	0.033069443
10	0x3d80cff1	0.06289662
11	0xbd559e6a	-0.05215303
12	0xbba5ea84	-0.005063357
13	0x3a0cde63	0.00053737144
14	0xbcb577bc	-0.02215182
15	0x3c667177	0.014065138
16	0xbd4d62ce	-0.050143056
17	0x3d19ed80	0.037580013
18	0x3d5e37b5	0.054252345
19	0x3bdb8ea9	0.006700356
20	0x3d622d54	0.05521901
21	0x3d255add	0.040369857
22	0x3d462009	0.048370395
23	0x3cbd9128	0.023140505
24	0xbccfc6d6	-0.025363367
25	0xbd44bfc0	-0.04803443
26	0x3ceb842b	0.028749546
27	0xbc456f7b	-0.012050505
28	0x3d49990a	0.049218215
29	0x3c85f21a	0.016350795
30	0xbc751f07	-0.014961011
31	0xbd1e330a	-0.038622893
32	0x3ccb775c	0.024837188
33	0x3c61317d	0.013744709
34	0x3d984a4b	0.07436045
35	0xbb77e00f	-0.0037822758
36	0xbc914451	-0.017732771
37	0xbd138ef6	-0.03602501
38	0x3d03e2c9	0.0321987
39	0xbc0ff233	-0.008785772
40	0x3c11d959	0.008901917
41	0x3d6678c7	0.056267526
42	0x3b469aec	0.0030304743
43	0x3dac8ecb	0.08425673
44	0x3d925018	0.07144183
45	0xbb8c2336	-0.0042766584
46	0x3d4beca2	0.049786218
47	0xbc6ff866	-0.014646625
48	0x3d67c5a8	0.056584984
49	0xbbdfe6de	-0.0068329414

fc2.weight f4 [10, 50]
0	0xbccd8b73	-0.025090909
1	0x3e33b09f	0.17547844
2	0x3cada47f	0.021196602
3	0xbd968442	-0.07349445
4	0x3def6f60	0.11691165
5	0x3e15294e	0.14566538
6	0xbe4e82e0	-0.20167112
7	0x3e491fd2	0.19641045
8	0xbdc055e6	-0.09391384
9	0xbe283dd1	-0.16429831
10	0x3e51e669	0.20498051
11	0x3d87c773	0.06629839
12	0xbe64af1c	-0.22332424
13	0xbe0fcf77	-0.14043985
14	0xbe33de67	-0.17565309
15	0x3e3ecd35	0.18632968
16	0x3d5d5e57	0.054045048
17	0xbe0e1293	-0.13874273
18	0xbd8f0e1a	-0.069851115
19	0x3e39048a	0.18068138
20	0xbc854c78	-0.016271815
21	0x3e5e1ce1	0.21690704
22	0xbe7638ed	-0.24045153
23	0xbda13ad4	-0.07872549
24	0xbe11aa2d	-0.14225073
25	0xbd745830	-0.059654415
26	0xbe507259	-0.2035612
27	0xbe0542e8	-0.13013804
28	0xbe4b3441	-0.19844152
29	0xbe534898	-0.20633161
30	0x3e4f6799	0.20254363
31	0x3ce6fde8	0.028197244
32	0xbe38f552	-0.18062332
33	0xbe32d5e9	-0.17464413
34	0xbe22f7b8	-0.1591481
35	0x3e06931c	0.13142055
36	0xbe70bca7	-0.23509465
37	0x3dfbd826	0.122970864
38	0xbd7893e9	-0.060687933
39	0x3dd9b699	0.10630531
40	0xbd7b3160	-0.061326385
41	0xbe252e54	-0.16130954
42	0x3e231c70	0.15928817
43	0x3e595f92	0.21227863
44	0xbe44c17d	-0.19214435
45	0x3df742cb	0.120732866
46	0x3e0cdd39	0.13756265
47	0x3e89f448	0.26944184
48	0xbe20c926	-0.15701732
49	0x3e1808fd	0.14847179
50	0x3e43cf81	0.19122125
51	0x3e3f410c	0.18677157
52	0x3e3aea08	0.18253338
53	0x3ea6653c	0.3249911
54	0xbdc1854a	-0.09449251
55	0x3d86812c	0.06567606
56	0x3d88c4a5	0.06678132
57	0xbd60a861	-0.05484808
58	0x3e41684c	0.18887442
59	0x3e4dd22a	0.20099702
60	0xbde34183	-0.1109648
61	0xbe44670c	-0.19179934
62	0x3e821c0b	0.2541202
63	0xbcf3e638	-0.029772863
64	0xbd334021	-0.04376233
65	0xbdeed614	-0.11661926
66	0xbda4ef2b	-0.0805343
67	0xbdd18dc3	-0.10232117
68	0xbcac5dfb	-0.021040907
69	0xbe1bee51	-0.15227629
70	0xbe47057e	-0.19435689
71	0xbbd140ae	-0.0063858842
72	0x3e20c13c	0.15698713
73	0xba943a44	-0.0011308868
74	0xbdf8c12c	-0.121462196
75	0x3cedf4be	0.029047366
76	0xbd95e629	-0.0731929
77	0x3e3a411f	0.18188904
78	0xbc593d87	-0.013259298
79	0x3d84d644	0.064861804
80	0x3e25d308	0.16193783
81	0xbdada6af	-0.08479058
82	0xbdea6044	-0.114441425
83	0x3dfbea43	0.12300541
84	0x3e337671	0.1752565
85	0xbdfb57d5	-0.12272612
86	0x3dc49bf5	0.09600059
87	0xbe6bd43f	-0.23030184
88	0x3e1f1eef	0.15539144
89	0x3dc8e24a	0.09808786
90	0xbe5fc243	-0.21851449
91	0xbd20f3e7	-0.039295103
92	0xbe04ccbe	-0.12968728
93	0x3e38811a	0.18017998
94	0x3e2bbbe4	0.16770893
95	0x3e0ebb5d	0.13938661
96	0xbe8e5673	-0.2780033
97	0x3d5618c8	0.052269727
98	0x3e852a52	0.2600885
99	0xbe30d5f4	-0.17269117
100	0x3e362db7	0.17790876
101	0xbd6219fd	-0.055200566
102	0x3e68387a	0.22677794
103	0xbdb6e07c	-0.08929536
104	0xbe607178	-0.21918285
105	0xbe048d1b	-0.12944452
106	0x3d04c3b7	0.03241321
107	0xbcdc1f65	-0.026870439
108	0xbe3caeac	-0.18426007
109	0xbe006139	-0.12537088
110	0x3e504d2f	0.20341943
111	0xbda2acb0	-0.07943094
112	0xbdef6933	-0.11689987
113	0xbe3b0bef	-0.18266271
114	0xbd672e69	-0.056440745
115	0xbd89d5f6	-0.06730263
116	0xbd88562e	-0.066570625
117	0x3df7482f	0.12074315
118	0x3e39f6aa	0.18160501
119	0x3e244c06	0.16044626
120	0xbe5aefb7	-0.21380506
121	0xbccb2bcb	-0.024801156
122	0xbdb14b2e	-0.086569175
123	0xbdf6734e	-0.120337114
124	0x3e1ec134	0.15503389
125	0xbd1ab756	-0.0377725
126	0xbe0c1198	-0.13678586
127	0x3e31fa42	0.17380622
128	0xbd9ed4f2	-0.0775546
129	0xbcd13b95	-0.025541106
130	0xbd5d38d9	-0.054009292
131	0x3d58f3f7	0.052967038
132	0xbe754930	-0.239537
133	0x3e060d17	0.13090931
134	0x3e28fda7	0.1650301
135	0x3e005f23	0.12536292
136	0xbe3be341	-0.18348409
137	0x3de225be	0.11042355
138	0xbd81fc15	-0.06346909
139	0x3d9f8262	0.077885404
140	0x3d8dd005	0.06924442
141	0x3e0675c6	0.13130865
142	0x3c59ae2c	0.013286155
143	0x3dcb17c2	0.09916641
144	0x3e274e7f	0.16338538
145	0xbe086605	-0.13320167
146	0x3dc03e28	0.09386855
147	0x3e72cf99	0.23712005
148	0x3e88eb0e	0.26741832
149	0x3dfb0c25	0.12258176
150	0xbe24991f	-0.16074036
151	0x3e2c1d21	0.16807987
152	0x3e54db0f	0.20786689
153	0xbd9b185c	-0.075730056
154	0xbd90eb86	-0.070761725
155	0xbd666d5e	-0.056256644
156	0x3e54c3ff	0.20777892
157	0xbda72ed4	-0.08163229
158	0xbd8e9afd	-0.069631554
159	0xbe8c87f6	-0.2744748
160	0xbc89fa63	-0.016843027
161	0x3e19d55e	0.150228
162	0xbdeb43dc	-0.114875525
163	0x3e55c86c	0.20877236
164	0xbdd59da7	-0.104304604
165	0xbbd6bf89	-0.0065535945
166	0xbc5ad91b	-0.013357426
167	0x3e1429c0	0.14469051
168	0x3e35a67d	0.17739291
169	0x3e101850	0.14071774
170	0xbe4e3bd0	-0.20140004
171	0xbb89871c	-0.0041970145
172	0xbcf4d790	-0.029887944
173	0xbe49fa4f	-0.19724391
174	0x3dbebcb0	0.09313333
175	0x3b1d5a6d	0.0024010197
176	0x3e0447e9	0.12918057
177	0x3e431356	0.19050345
178	0xbd8d14ac	-0.068887085
179	0x3df42e72	0.11922921
180	0xbdebe45e	-0.11518167
181	0x3e322160	0.17395544
182	0x3e191650	0.14949918
183	0x3e066a6e	0.13126537
184	0xbe550053	-0.20800905
185	0x3e06d1b1	0.13165928
186	0x3db8d0a5	0.09024171
187	0xbcd7867d	-0.026309246
188	0xbdfcd2c3	-0.12344887
189	0x3dda30a0	0.10653806
190	0xbe1125f1	-0.1417463
191	0xbdf05853	-0.117355965
192	0x3c1f28d2	0.009714322
193	0xbe12b5eb	-0.14327209
194	0x3d9a3296	0.0752918
195	0xbc46a178	-0.012123458
196	0xbe3ffbcf	-0.18748401
197	0xbd9918d2	-0.07475437
198	0x3ddc0a6a	0.10744174
199	0x3e0af5a7	0.13570271
200	0xbcdaa7df	-0.026691375
201	0xbe36e6dc	-0.17861503
202	0xbe359859	-0.17733897
203	0xbdd3c5a4	-0.10340431
204	0xbe02438b	-0.12721078
205	0x3e11fead	0.14257307
206	0xbde89a11	-0.11357511
207	0xbd7469d8	-0.059671253
208	0x3e3d12a8	0.18464148
209	0x3e19ea92	0.15030888
210	0x3c2c0b55	0.010500749
211	0x3df922a0	0.12164807
212	0x3e799b3b	0.24375622
213	0xbd2c3161	-0.04203928
214	0xbe2b2381	-0.16712762
215	0xbe0af472	-0.13569811
216	0x3d5fad95	0.0546089
217	0xbe2dee88	-0.16985524
218	0x3e37d6f4	0.17953092
219	0xbd5c8f8d	-0.05384784
220	0x3deb0a98	0.1147663
221	0x3e32bc63	0.17454676
222	0xbd835a09	-0.06413657
223	0x3e717db4	0.23583108
224	0x3e316c16	0.17326388
225	0xbe01dc6f	-0.12681745
226	0x3dee51cd	0.11636696
227	0xbe2ed775	-0.17074378
228	0x3e681f54	0.226682
229	0x3c196f0a	0.009364853
230	0xbc38b7fd	-0.011274335
231	0x3e329c21	0.17442371
232	0x3dc68ff7	0.09695428
233	0xbda8271f	-0.08210587
234	0x3e393f48	0.18090546
235	0xbe629ae4	-0.22129399
236	0x3e1d2120	0.15344667
237	0xbe20932f	-0.15681146
238	0x3e631ec7	0.2217971
239	0xbe0b1594	-0.1358245
240	0x3de7ba6a	0.113148525
241	0x3e0efe75	0.13964255
242	0xbdd5a5db	-0.10432025
243	0xbe32e20d	-0.17469044
244	0xbe23f4fa	-0.1601142
245	0x3cbfb841	0.023403289
246	0x3de0ca28	0.10976058
247	0x3dc41d93	0.09575953
248	0xbe188fd9	-0.14898624
249	0xbe12f869	-0.14352573
250	0xbd32a9e2	-0.043619044
251	0x3e435efa	0.190792
252	0xbc6726e1	-0.014108391
253	0xbc8b545c	-0.017008
254	0x3e3fe6d5	0.18740399
255	0xbdeff90b	-0.11717423

fc2.bias f4 [10]
0	0x3d034b6a	0.032054342
1	0x3d9afeb9	0.07568116
2	0xbd95e679	-0.0731935
3	0xbdb878bf	-0.090074055
4	0xbc705ecf	-0.014671042
5	0x3e0a3b79	0.1349925
6	0x3e17a3d1	0.14808585
7	0xbde0306b	-0.10946735
8	0x3d512898	0.051064104
9	0xbe0d94d7	-0.13826309
